…
parameters, \u03bc and \u03c3, are the moving\r\naverages, they are not affected by backpropagation, so Keras calls them “Non-\r\ntrainable”9 (if you count the total number of BN parameters, 3136 + 1200 + 400, and\r\ndivide by two, you get 2,368, which is the total number of non-trainable params in\r\nthis model).\r\n>>> model.summary()\r\nModel: "sequential_3"\r\n_________________________________________________________________\r\nLayer (type)                 Output Shape              Param #\r\n=================================================================\r\nflatten_3 (Flatten)          (None, 784)               0\r\n_________________________________________________________________\r\nbatch_normalization_v2 (Batc (None, 784)               3136\r\n_________________________________________________________________\r\ndense_50 (Dense)             (None, 300)               235500\r\n_________________________________________________________________\r\nbatch_normalization_v2_1 (Ba (None, 300)               1200\r\n_________________________________________________________________\r\ndense_51 (Dense)             (None, 100)               30100\r\n_________________________________________________________________\r\nbatch_normalization_v2_2 (Ba (None, 100)               400\r\n_________________________________________________________________\r\ndense_52 (Dense)             (None, 10)                1010\r\n=================================================================\r\nTotal params: 271,346\r\nTrainable params: 268,978\r\nNon-trainable params: 2,368\r\nLet’s look at the parameters of the first BN layer. Two are trainable (by backprop), and\r\ntwo are not:\r\n>>> [(var.name, var.trainable ) for var in model.layers[1].variables ]\r\n[(\'batch_normalization_v2/gamma:0\', True),\r\n (\'batch_no
…
